classification/cifar_net.pth (torch, 250887 bytes, 10 tensors)

conv1.weight f4 [6, 3, 5, 5]
-0.091668464 -0.1254049 -0.026911343 0.46792677 0.5362874 0.12595564 0.029969703 -0.39925534
-0.3712665 0.36554813 0.4150631 0.2654209 0.18913531 -0.57141817 -0.047005482 0.27922145
0.13377896 0.3813063 -0.1395676 -0.22742432 0.06448049 -0.14651836 0.075333744 -0.29804257
-0.05269747 -0.09689806 -0.13999267 -0.47017124 -0.18701638 -0.10047481 0.24840105 0.34644055
-0.31394646 -0.6907951 -0.0152298445 0.14588341 0.36296654 0.02388829 -0.9674505 -0.3928436
-0.021835664 0.12083959 0.17545696 -0.4174767 -0.4484342 -0.054647285 -0.12846264 0.06039448
-0.25832966 -0.20612243 0.01848793 0.096692055 -0.20260644 -0.2058112 0.07749712 0.22293562
0.35221472 -0.20426011 -0.74271053 0.035174027 0.19523244 0.68600863 0.2666241 -0.7851225
-0.51836926 -0.03592183 0.4795897 0.52331877 -0.08586702 -0.3950419 0.037158947 0.28508902
0.5200599 0.23485106 0.10657485 -0.0049436926 0.36372322 0.008628155 -0.0556021 0.0726867
-0.11884953 -0.43385598 -0.08908869 0.5268733 0.24095926 0.18857874 -0.68939954 -0.4430187
0.6497393 0.5681496 0.115222454 -0.16658078 -0.2434933 -0.0027070052 0.36479062 -0.1720892
-0.04678399 0.10637128 -0.14803562 -0.07342774 -0.08349961 0.05508344 -0.021437882 -0.019359143
0.19431353 -0.14380302 -0.6879707 -0.15947634 0.53396046 0.35900262 0.03716021 -0.72121555
-0.58193934 0.58312684 0.48842105 0.032720886 -0.21367465 -0.33176452 -0.06414681 0.30065453
-0.067524314 0.09323458 0.20445187 -0.17614375 0.17119078 -0.076728694 0.030481752 -0.0048632193
-0.09866037 -0.24192624 -0.18397334 -0.61717063 0.08163051 0.6441403 0.10546587 0.08249059
-0.6670363 -0.37807044 0.6353184 0.45597 0.10781133 -0.16160087 -0.28316408 0.2075497
0.36044896 -0.03426922 0.12467717 0.17117575 0.16866362 0.42088404 0.20182103 0.06510058
0.029445158 0.32459486 0.31860223 0.6117605 1.1521649 1.2240423 1.1660185 0.5033306
-0.12440215 0.6119438 0.47415784 0.4212655 0.09987057 -0.46593842 -0.6924449 -0.79385656
-0.74966717 -0.40160084 -0.6671169 -0.632041 -0.40003517 -0.3985921 -0.6279405 -0.098236464
-0.48145893 -0.85225934 -0.4549619 -0.38552803 0.021699416 0.67894363 0.46194994 0.46323866
-0.1993175 -0.33316323 0.10272151 0.016151182 -0.06906338 -0.44197577 -0.2975137 -0.49131185
-0.7635544 -0.6755873 -0.34018698 0.33273226 0.20921132 0.39949197 0.2767955 0.20593813
0.042724904 -0.5675572 -0.89016 -0.31414878 -0.08437132 0.023087597 0.6136115 0.40793297
0.5440404 0.18031172 -0.21714985 0.375667 0.13514446 0.24143481 0.078834094 -0.07137069
-0.27010617 -0.5485455 -0.37674624 0.12320777 0.19993702 0.25591448 0.3522931 0.35604113
0.44216996 -0.42694524 0.14631058 0.16161141 -0.008515848 -0.29945835 0.031307157 -0.37735373
-0.9925089 -0.867954 -0.19106516 0.15884998 -0.36716822 -0.44246313 -0.15344632 0.14744188
-0.13715868 0.2622128 0.7333784 0.5458469 0.0487249 0.2812674 0.5489963 0.39559165
0.2535459 0.41818368 -0.16184257 0.1309771 0.25809294 0.045236427 -0.009163136 0.34264416
00000000: adbc bbbd 246a 00be 2d75 dcbc 1994 ef3e
00000010: 224a 093f 84fa 003e 0683 f53c 326b ccbe
00000020: a516 bebe 2029 bb3e 2783 d43e 40e5 873e
00000030: b0ac 413e 7648 12bf d288 40bd 1df6 8e3e
00000040: 5afd 083e 943a c33e cfea 0ebe ece1 68be
00000050: 590e 843d e908 16be 9448 9a3d 0999 98be
00000060: 4dd9 57bd 7d72 c6bd 3d5a 0fbe 49ba f0be
00000070: 3981 3fbe bdc5 cdbd d85c 7e3e a860 b13e
00000080: 97bd a0be f3d7 30bf 9986 79bc 7662 153e
00000090: c0d6 b93e 60b1 c33c d6aa 77bf cc22 c9be
000000a0: b5e0 b2bc bf7a f73d fdaa 333e 82bf d5be
000000b0: 2b99 e5be d5d5 5fbd b68b 03be 3460 773d
000000c0: c943 84be c211 53be 0074 973c 7c06 c63d
000000d0: 1078 4fbe 2cc0 52be cfb6 9e3d 3c49 643e
000000e0: 7d55 b43e 9029 51be 4722 3ebf a412 103d
000000f0: 03eb 473e 439e 2f3f f482 883e cafd 48bf
00000100: d9b3 04bf c522 13bd c88c f53e 38f8 053f
00000110: 0cdb afbd ef42 cabe fb33 183d 30f7 913e
00000120: a522 053f cc7c 703e ea43 da3d b3fe a1bb
00000130: ee39 ba3e 1b5d 0d3c 07bf 63bd c4dc 943d
00000140: 6267 f3bd 5f22 debe 2274 b6bd 2be1 063f
00000150: 06be 763e c91a 413e 7d7c 30bf 59d3 e2be
00000160: 5155 263f 4172 113f c0f9 eb3d 2794 2abe
00000170: 4f56 79be 0368 31bb d6c5 ba3e 2738 30be
00000180: 92a0 3fbd 30d9 d93d a696 17be 4861 96bd
00000190: d801 abbd 2c9f 613d 7f9e afbc 1197 9ebc
000001a0: 20fa 463e 1941 13be d91e 30bf c44d 23be
000001b0: a2b1 083f 31cf b73e 4e35 183d 95a1 38bf
000001c0: faf9 14bf cd47 153f 5312 fa3e 5606 063d
000001d0: 87cd 5abe 0add a9be 675f 83bd 64ef 993e
000001e0: 304a 8abd c5f1 be3d d55b 513e 075f 34be
000001f0: a34c 2f3e ef23 9dbd deb4 f93c a45b 9fbb
00000200: 730e cabd 83bb 77be 8263 3cbe e5fe 1dbf
00000210: e62d a73d 61e6 243f 7dfe d73d d4f0 a83d
00000220: e4c2 2abf 7392 c1be 3aa4 223f e674 e93e
00000230: 30cc dc3d b37a 25be e2fa 90be e987 543e
00000240: c48c b83e e25d 0cbd be56 ff3d b248 2f3e
00000250: 28b6 2c3e 1d7e d73e 2caa 4e3e 7453 853d
00000260: f936 f13c 4c31 a63e d51f a33e 569c 1c3f
00000270: 247a 933f 6bad 9c3f 1840 953f 46da 003f
00000280: 8ec6 febd 59a8 1c3f d1c4 f23e 1db0 d73e
00000290: f188 cc3d 7b8f eebe 1244 31bf 2f3a 4bbf
000002a0: 30ea 3fbf a09e cdbe 2cc8 2abf 70cd 21bf
000002b0: 69d1 ccbe 4414 ccbe b5c0 20bf 3330 c9bd
000002c0: c981 f6be ab2d 5abf c4f0 e8be ee63 c5be
000002d0: f9c2 b13c 40cf 2d3f b484 ec3e 9e2d ed3e
000002e0: e319 4cbe 5f94 aabe a85f d23d 7c4f 843c
000002f0: 1a71 8dbd a64a e2be b753 98be 3a8d fbbe
00000300: 4d78 43bf 4af3 2cbf fd2c aebe e25b aa3e
00000310: 7e3b 563e 368a cc3e 24b8 8d3e 72e1 523e
00000320: 4f00 2f3d 6e4b 11bf 87e1 63bf 1cd8 a0be
00000330: dfca acbd 3322 bd3c a515 1d3f 97dc d03e
00000340: 3b46 0b3f a3a3 383e 885c 5ebe 6d57 c03e
00000350: 4f63 0a3e b03a 773e c573 a13d cc2a 92bd
00000360: 5b4b 8abe 7a6d 0cbf e2e4 c0be 5b54 fc3d
00000370: 4abc 4c3e 3907 833e c35f b43e 064b b63e
00000380: 1a64 e23e 9198 dabe 71d2 153e 767d 253e
00000390: 0e86 0bbc 9b52 99be ef3b 003d 8234 c1be
000003a0: 1015 7ebf 3c32 5ebf 96a6 43be 92a9 223e
000003b0: 79fd bbbe 878a e2be 0821 1dbe 01fb 163e
000003c0: 5373 0cbe c240 863e b0be 3b3f 9fbc 0b3f
000003d0: c393 473d 4802 903e 068b 0c3f fd8a ca3e
000003e0: c5d0 813e 2c1c d63e 0fba 25be dc1e 063e
000003f0: c224 843e d549 393d fa20 16bc 0e6f af3e

conv1.bias f4 [6]
-0.54404896 -0.35189858 -0.9678033 -0.7096083 0.54535896 -0.2916253
00000000: cb46 0bbf 0d2c b4be f5c1 77bf e4a8 35bf
00000010: a59c 0b3f e94f 95be

conv2.weight f4 [16, 6, 5, 5]
0.44316342 0.13269478 -0.025511386 0.23349094 0.20962097 0.50495595 0.08886648 -0.2699378
-0.27976352 0.12314943 0.47155613 0.21008362 -0.23569311 -0.26612827 0.026667692 0.33126968
0.07840724 0.044078853 -0.053578988 0.15469912 -0.19412482 -0.115481086 0.22038712 -0.16890058
0.25583747 0.37682375 0.25028077 0.13325362 -0.18960552 -0.16711941 0.35157934 -0.37881395
-0.16725327 -0.038805686 0.015018528 0.09376093 -0.4162712 -0.39621028 -0.07346794 0.27740708
0.23823285 -0.08392554 -0.2610367 -0.14788756 0.1344077 0.18487404 -0.12766501 -0.09696945
-0.08377025 -0.095426016 0.19539288 -0.027478218 -0.07674515 -0.0026285877 -0.02106819 0.14628069
0.031445608 -0.11657659 -0.11908793 -0.07339699 -0.009773018 0.15712692 0.13411579 0.16058093
0.008560832 -0.36317563 0.039804835 0.20925047 0.31561583 -0.049749263 -0.1924792 0.16055931
0.2896428 0.3164816 -0.06659934 -0.15426275 -0.20128973 -0.16119587 -0.09382713 0.082448505
-0.54588324 -0.20942204 -0.26849934 0.00049024133 0.094247565 -0.47324935 -0.13879761 0.09622143
0.19631131 -0.169988 0.0076367664 0.087683514 0.018030308 0.04138698 0.17856064 0.17481941
-0.0026188018 0.06867438 0.003797308 0.29021025 0.47414047 0.19757707 0.15621682 0.07734255
-0.20126554 0.4970571 0.00926885 0.072317 -0.064012535 -0.39991298 0.6394511 0.044545162
-0.15850584 -0.40346095 -0.62482834 0.39745557 -0.20386279 -0.43710276 -0.4567299 -0.59776956
0.4868787 0.14657728 0.06984197 -0.059137665 -0.267652 -0.14283004 -0.22980718 -0.09378101
-0.014255034 -0.07953891 0.09667534 -0.19045831 -0.3007645 -0.24888994 0.0010017204 0.031704303
-0.1679384 -0.40800285 -0.21925089 -0.0025843591 -0.12237925 -0.01879626 -0.3108266 -0.22807701
-0.10552487 0.010984611 -0.12719372 -0.10972794 -0.06045866 -0.047157213 0.124650896 0.22109206
-0.034158636 0.06456275 0.032388065 -0.20822182 -0.1251149 0.17543021 0.14750358 0.09398904
-0.27344075 -0.4219257 -0.16116732 -0.084760405 -0.119694866 -0.16846043 -0.5344691 -0.4972056
-0.2796899 -0.11466909 -0.2584555 -0.66920733 -0.34016716 -0.31859452 -0.079628356 -0.060314193
0.047748215 0.14071749 -0.27851328 -0.28479916 -0.21751463 -0.21564566 -0.020158924 0.14762631
0.1859614 -0.06008777 -0.46511012 -0.50484306 0.037996262 0.34336886 -0.00021551384 -0.21183774
-0.4604815 -0.07752018 0.2672244 -0.18786654 -0.1883623 -0.3149071 -0.18567695 -0.12167522
0.13784002 -0.054463238 -0.22606069 -0.14976741 0.08440909 -0.1459462 -0.32404253 -0.03861677
-0.10612069 -0.21953496 -0.10001846 -0.16845071 -0.113477066 -0.45242205 0.040510856 -0.0029723602
-0.12426401 -0.11269795 0.10524287 -0.04167234 0.16081458 -0.05205538 -0.22465584 -0.14581041
-0.3909534 -0.12493916 -0.046250023 -0.18755655 -0.02992817 -0.05278715 -0.06330421 0.06841102
-0.022001112 -0.053132948 0.023036601 0.04261888 -0.025378583 -0.033376444 -0.032974586 -0.0070447885
0.10651693 0.020598838 -0.07750764 -0.19475053 0.23099704 0.10580044 -0.092694625 -0.06555967
0.12288505 0.20855242 0.047769494 0.014905584 -0.010017166 -0.059333384 0.04409169 0.055506606
00000000: 51e6 e23e 24e1 073e 41fd d0bc 4018 6f3e
00000010: e1a6 563e cb44 013f a1ff b53d 4a35 8abe
00000020: 2a3d 8fbe c535 fc3d ce6f f13e 2920 573e
00000030: 8959 71be f741 88be 3476 da3c 2e9c a93e
00000040: fa93 a03d 078c 343d a475 5bbd 7269 1e3e
00000050: a8c8 46be 5981 ecbd 29ad 613e 46f4 2cbe
00000060: 21fd 823e 0bef c03e cd24 803e a373 083e
00000070: f327 42be 5a21 2bbe 3502 b43e e7f3 c1be
00000080: 7144 2bbe b6f2 1ebd 4610 763c bb05 c03d
00000090: 8021 d5be 13dc cabe 5c76 96bd 4d08 8e3e
000000a0: 50f3 733e 27e1 abbd 9aa6 85be d66f 17be
000000b0: 2ca2 093e 9f4f 3d3e 9eba 02be eb97 c6bd
000000c0: bd8f abbd b76e c3bd 1215 483e 001a e1bc
000000d0: 902c 9dbd 6244 2cbb 3297 acbc 9bca 153e
000000e0: 1ccd 003d b5bf eebd 5fe4 f3bd 2951 96bd
000000f0: 021f 20bc e1e5 203e a655 093e 546f 243e
00000100: bb42 0c3c 28f2 b9be 650a 233d c145 563e
00000110: 6698 a13e e2c5 4bbd 4419 45be a969 243e
00000120: 104c 943e e009 a23e 3c65 88bd 0ef7 1dbe
00000130: e51e 4ebe 8810 25be 7028 c0bd c3da a83d
00000140: 01bf 0bbf bb72 56be bf78 89be 8a83 003a
00000150: de04 c13d bd4d f2be f620 0ebe be0f c53d
00000160: d505 493e 5611 2ebe d73d fa3b 6a93 b33d
00000170: 4cb4 933c 6585 293d 9ad8 363e dc03 333e
00000180: 34a0 2bbb 27a5 8c3d 42dc 783b 7096 943e
00000190: 8ac2 f23e a551 4a3e 4df7 1f3e c565 9e3d
000001a0: 8e18 4ebe 457e fe3e 60dc 173c ef1a 943d
000001b0: 0119 83bd 65c1 ccbe 11b3 233f fd74 363d
000001c0: 5b4f 22be 6f92 cebe c0f4 1fbf 4c7f cb3e
000001d0: 68c1 50be efcb dfbe 80d8 e9be 6d07 19bf
000001e0: 2a48 f93e 5b18 163e 4f09 8f3d 563a 72bd
000001f0: af09 89be 0a42 12be 9352 6bbe 4210 c0bd
00000200: f28d 69bc 4ce5 a2bd b8fd c53d 8107 43be
00000210: cefd 99be 01dd 7ebe 294c 833a 5fdc 013d
00000220: 0bf8 2bbe c0e5 d0be 4e83 60be 5a5e 29bb
00000230: f9a1 fabd 9dfa 99bc aa24 9fbe 058d 69be
00000240: 6c1d d8bd ccf8 333c 123f 02be 0bb9 e0bd
00000250: 80a3 77bd ec27 41bd f848 ff3d f565 623e
00000260: ede9 0bbd 7a39 843d 59a9 043d 1a38 55be
00000270: 1f1e 00be faa3 333e 2e0b 173e 537d c03d
00000280: 6d00 8cbe a506 d8be 0c09 25be dd96 adbd
00000290: 9522 f5bd e480 2cbe f8d2 08bf bb91 febe
000002a0: 8433 8fbe a1d7 eabd 4754 84be 2c51 2bbf
000002b0: 642a aebe d21e a3be 3114 a3bd 040c 77bd
000002c0: a293 433d 3f18 103e 4b99 8ebe 32d1 91be
000002d0: 28bc 5ebe 37d2 5cbe 5424 a5bc 5a2b 173e
000002e0: aa6c 3e3e 981e 76bd ea22 eebe 653d 01bf
000002f0: f8a1 1b3d 0bce af3e 8efb 61b9 feeb 58be
00000300: 3bc4 ebbe e6c2 9ebd a3d1 883e 1660 40be
00000310: 0ce2 40be 813b a1be 1922 3ebe dc30 f9bd
00000320: ef25 0d3e d814 5fbd 747c 67be a15c 19be
00000330: acde ac3d ec72 15be e7e8 a5be 9e2c 1ebd
00000340: ce55 d9bd c6cd 60be 7ad6 ccbd 587e 2cbe
00000350: aa66 e8bd dda3 e7be b6ee 253d eecb 42bb
00000360: 217e febd 2fce e6bd 9389 d73d 9eb0 2abd
00000370: 94ac 243e 0638 55bd 2e0c 66be 534f 15be
00000380: 0b2b c8be 1ae0 ffbd aa70 3dbd d30e 40be
00000390: ec2b f5bc 5737 58bd a3a5 81bd 141b 8c3d
000003a0: ad3b b4bc efa1 59bd 41b7 bc3c 2291 2e3d
000003b0: bfe6 cfbc bdb5 08bd 5c10 07bd f8d7 e6bb
000003c0: 8c25 da3d e5be a83c 53bc 9ebd af6c 47be
000003d0: 7d8a 6c3e e7ad d83d aed6 bdbd 2644 86bd
000003e0: 28ab fb3d c48e 553e f2a9 433d 8d36 743c
000003f0: 0a1f 24bc 9007 73bd 7d99 343d e55a 633d

conv2.bias f4 [16]
-1.1407187 1.1600837 0.3840814 1.4367584 -1.7181399 -1.1245158 0.60873145 -0.25533575
-0.36506435 -1.0916057 -0.8255336 0.13970353 1.723655 1.0861607 0.16783695 0.4230105
00000000: 1203 92bf 9f7d 943f 51a6 c43e b3e7 b73f
00000010: 02ec dbbf 22f0 8fbf d3d5 1b3f 5ebb 82be
00000020: b7e9 babe bcb9 8bbf 2c56 53bf 710e 0f3e
00000030: baa0 dc3f 5007 8b3f 73dd 2b3e d594 d83e

fc1.weight f4 [120, 400]
-0.12534963 0.028985139 -0.079584494 -0.04608047 0.0311044 -0.10279543 0.02992653 -0.044128004
-0.06294185 0.05234773 0.115007885 -0.00840973 -0.026859088 -0.009581571 0.069118984 0.072604656
0.15172012 0.09135611 -0.04959431 -0.003219359 0.035441745 -0.016697956 -0.09848523 -0.11628739
0.050688248 -0.0812556 -0.20542133 -0.055079177 -0.07115399 -0.12371917 0.052763414 0.049482044
0.07058649 -0.059089523 0.02638259 -0.07985682 -0.00290053 -0.06191454 -0.043845296 -0.08376094
-0.004941284 0.07618888 -0.082616284 0.025289088 0.0052197655 -0.060378216 0.043306265 -0.04589792
0.01258779 0.06125634 0.18968815 -0.018309437 0.0067804027 0.012835149 -0.013161954 -0.02332581
-0.16828196 -0.01174065 -0.010097025 -0.07124408 0.027410688 -0.084640846 -0.0537002 -0.043961775
-0.040506158 -0.007197571 -0.013068055 -0.06034452 -0.0066663194 0.0031355866 0.04586264 -0.045395084
0.045083664 0.07191019 0.011368799 -0.21014623 -0.20169778 -0.099583164 -0.057019897 -0.036272466
-0.07777353 -0.06377281 -0.15205196 -0.14168748 0.05494895 -0.04877304 -0.0029436308 -0.07055597
-0.068050765 -0.052286383 -0.06597295 0.044267297 -0.08222752 -0.060874015 0.01865863 0.006329019
-0.08638349 -0.040452313 -0.00302962 -0.050666835 0.031673882 0.012257939 0.15487222 0.053691454
-0.15462515 0.032560762 -0.0036376517 0.008833754 -0.07189097 -0.0364766 0.099465474 0.08437198
-0.005394832 0.062435117 -0.06851162 -0.22038943 -0.1907683 0.023441678 -0.020887591 -0.10955583
0.37005883 -0.039341036 0.044159777 -0.034668118 -0.0049278606 0.18600918 -0.10783663 -0.13285719
-0.16380683 -0.1788729 0.015148907 0.011594214 -0.13546008 -0.17420301 -0.11133377 0.051964983
-0.124848925 -0.1806571 -0.12504368 -0.13562417 -0.07631114 -0.037165508 -0.11706911 -0.09625817
-0.05482391 -0.00088418176 -0.09229783 -0.0842005 -0.07773229 -0.063034244 0.093318604 0.18751219
0.18108457 -0.11909575 -0.19203915 0.019261496 0.10827759 0.032531857 -0.014942717 -0.06421091
0.1626331 0.081359126 0.10142357 0.020158485 0.043884754 0.030600753 -0.037170783 -0.053914107
0.02488576 -0.10411579 0.14211982 0.11516848 -0.068618186 -0.11765359 -0.12191906 0.24752632
0.16540222 0.045362126 0.09595243 -0.0006327732 0.03211119 0.13025174 -0.016842483 -0.11478432
-0.10537733 -0.065231904 0.024404455 0.040294357 -0.15572712 -0.047130708 -0.12687688 -0.037670888
-0.06940363 -0.056905277 0.18330878 -0.18752779 -0.25837302 -0.06487124 -0.0512538 0.1351849
0.077236176 0.071387745 -0.041245144 -0.06039389 -0.0035359317 -0.15885913 -0.045044508 -0.04811668
0.01601209 -0.09991127 0.036479693 -0.045248497 -0.105680436 0.046827704 0.088826984 -0.10025332
0.092284404 -0.006958198 0.106136106 0.050026026 0.05041808 -0.029026538 0.16373777 0.106778525
0.17124939 0.048541214 -0.010785141 0.19189855 0.12435363 0.067104496 0.104428254 0.060378138
0.20175022 0.019919397 0.059973907 0.051477794 -0.051083915 -0.01807968 0.105606206 0.04694583
0.07152224 -0.052547455 -0.12735863 0.0099187065 -0.15165636 0.18987776 0.036838647 0.092536405
0.02146026 0.009563546 0.074601695 -0.075332835 -0.026043138 0.1120231 0.022311158 -0.08534064
00000000: a75b 00be 3e72 ed3c 32fd a2bd e0be 3cbd
00000010: a8ce fe3c 6986 d2bd 7b28 f53c 91bf 34bd
00000020: a8e7 80bd 936a 563d 4189 eb3d f7c8 09bc
00000030: 9707 dcbc 06fc 1cbc 418e 8d3d c0b1 943d
00000040: 855c 1b3e ea18 bb3d 6723 4bbd e2fb 52bb
00000050: 5d2b 113d 27ca 88bc a0b2 c9bd 1528 eebd
00000060: 7b9e 4f3d 5669 a6bd f859 52be b49a 61bd
00000070: 2fb9 91bd 7a60 fdbd 731e 583d afad 4a3d
00000080: a68f 903d db07 72bd 4d20 d83c f98b a3bd
00000090: d116 3ebb 1a9a 7dbd 2097 33bd db8a abbd
000000a0: 7fea a1bb ea08 9c3d ba32 a9bd 102b cf3c
000000b0: 910a ab3b 264f 77bd e961 313d 75ff 3bbd
000000c0: 053d 4e3c eee7 7a3d 9c3d 423e acfd 95bc
000000d0: 242e de3b 844a 523c 3ca5 57bc c515 bfbc
000000e0: 1b52 2cbe db5b 40bc fe6d 25bc 6be8 91bd
000000f0: 618c e03c 2e58 adbd bef4 5bbd 4311 34bd
00000100: c9e9 25bd 9ad9 ebbb 651b 56bc d12b 77bd
00000110: 2471 dabb 6a7e 4d3b 77da 3b3d 32f0 39bd
00000120: a6a9 383d a645 933d 3344 3a3c 9330 57be
00000130: dd89 4ebe 42f2 cbbd b28d 69bd 7092 14bd
00000140: ba47 9fbd 529b 82bd 82b3 1bbe 8616 11be
00000150: 2612 613d 3dc6 47bd eee9 40bb a67f 90bd
00000160: 335e 8bbd 3f2a 56bd d31c 87bd a051 353d
00000170: e766 a8bd 0857 79bd fcd9 983c a963 cf3b
00000180: d4e9 b0bd 53b1 25bd 978c 46bb 0788 4fbd
00000190: 79bc 013d 86d5 483c d396 1e3e 92eb 5b3d
000001a0: 0e56 1ebe 6f5e 053d ab65 6ebb 73bb 103c
000001b0: 933b 93bd 7d68 15bd 8eb4 cb3d 37cb ac3d
000001c0: 22c7 b0bb f7bb 7f3d d24f 8cbd c4ad 61be
000001d0: c458 43be c308 c03c 741c abbc cf5e e0bd
000001e0: 5a78 bd3e 1124 21bd e2e0 343d 2800 0ebd
000001f0: e479 a1bb 3179 3e3e 73d9 dcbd b70b 08be
00000200: fabc 27be 752a 37be 1f33 783c a8f5 3d3c
00000210: 0cb6 0abe 4662 32be f602 e4bd 3cd9 543d
00000220: cbb0 ffbd 2dfe 38be 730b 00be 10e1 0abe
00000230: 0449 9cbd dc3a 18bd eec1 efbd 0123 c5bd
00000240: 098f 60bd 6fc8 67ba a506 bdbd 5071 acbd
00000250: 1b32 9fbd 1918 81bd d31d bf3d 3203 403e
00000260: 3c6e 393e 79e8 f3bd e9a5 44be 49ca 9d3c
00000270: a4c0 dd3d 2040 053d 4cd2 74bc 0281 83bd
00000280: 4b89 263e 9d9f a63d 29b7 cf3d 6823 a53c
00000290: 80c0 333d 6eae fa3c 6440 18bd 0ad5 5cbd
000002a0: 39dd cb3c a93a d5bd dc87 113e 74dd eb3d
000002b0: b187 8cbd 5ef4 f0bd b3b0 f9bd 8a77 7d3e
000002c0: 335f 293e a3cd 393d b582 c43d b1e0 25ba
000002d0: 0687 033d b660 053e 3ff9 89bc 0b14 ebbd
000002e0: 12d0 d7bd 4e98 85bd daeb c73c b20b 253d
000002f0: ee76 1fbe 210c 41bd 03ec 01be ca4c 1abd
00000300: 7e23 8ebd 8215 69bd 4cb5 3b3e 4907 40be
00000310: 7849 84be 36db 84bd 81ef 51bd e96d 0a3e
00000320: 002e 9e3d bd33 923d abf0 28bd 955f 77bd
00000330: 17bb 67bb f8ab 22be 9780 38bd ff15 45bd
00000340: c92b 833c 489e ccbd bb6b 153d 7d56 39bd
00000350: fc6e d8bd 68ce 3f3d ecea b53d 9d51 cdbd
00000360: 9bff bc3d 9801 e4bb e35d d93d 17e8 4c3d
00000370: 3083 4e3d 10c9 edbc e0aa 273e b3ae da3d
00000380: 005c 2f3e 27d3 463d 29b4 30bc 0e81 443e
00000390: 1ead fe3d 156e 893d 7bde d53d 114f 773d
000003a0: 9c97 4e3e 012e a33c 33a7 753d 61da 523d
000003b0: 5e3d 51bd d61b 94bc 1148 d83d 454a 403d
000003c0: 417a 923d 003c 57bd 4d6a 02be 1282 223c
000003d0: ce4b 1bbe 516f 423e 1fe4 163d ba83 bd3d
000003e0: 6dcd af3c 6bb0 1c3c c6c8 983d 1a48 9abd
000003f0: 6b58 d5bc 5e6c e53d e4c5 b63c 13c7 aebd

fc1.bias f4 [120]
-0.007175999 -0.21095636 -0.05462552 0.16464007 -0.077746615 0.3771322 -0.0027979454 0.041673638
-0.10639925 -0.0010255465 -0.01082154 -0.023570139 -0.0853929 0.16802458 0.12325524 0.13041411
0.22802508 0.074820034 -0.026038945 0.039568942 0.13625644 0.27995023 -0.16203162 0.08253488
-0.08268349 -0.010801287 0.049966678 0.019457975 0.2295104 -0.13378397 0.005157696 -0.055270355
-0.06979207 0.059243016 -0.037975337 -0.020786451 0.30266368 -0.21342447 0.1671919 0.023088181
0.07342528 0.3589028 0.128126 0.18636541 0.18099567 0.13506639 0.27295724 -0.05401212
0.031574875 -0.20264754 0.013997453 -0.19254518 0.20826624 -0.025926605 -0.031210266 0.07278673
-0.030044701 0.066464454 0.071038686 0.03804476 -0.2643208 -0.0032856693 0.19287536 0.27409554
-0.017042734 0.09398152 0.06061318 0.05103993 0.06936056 -0.02985088 0.100941874 -0.1002264
0.26876277 -0.0023104257 -0.03530428 0.08433139 0.053397406 -0.006566642 0.023360247 -0.04361265
0.41388527 -0.08471864 -0.13661277 0.08397097 0.3946927 -0.008702872 -0.05745703 -0.03774423
-0.06704048 -0.05934526 -0.033025697 0.22767895 0.1032246 0.34347764 -0.08373655 0.1918212
0.106642544 -0.20649642 -0.5473812 -0.042668067 -0.17068116 -0.06541024 0.32740098 -0.30724213
0.1460456 0.2498357 0.09046701 -0.120549105 -0.12038237 0.21178271 0.051593594 0.4464225
0.18550904 -0.13517477 0.25773785 0.16586408 -0.10731669 -0.26883644 0.32497266 0.07460375
00000000: a524 ebbb f204 58be 02bf 5fbd 6897 283e
00000010: 9e39 9fbd 7917 c13e bc5d 37bb fab1 2a3d
00000020: dae7 d9bd a16b 86ba d44c 31bc 2a16 c1bc
00000030: 79e2 aebd a30e 2c3e 3e6d fc3d 478b 053e
00000040: 687f 693e 3f3b 993d a04f d5bc 0b13 223d
00000050: cf86 0b3e a355 8f3e 9eeb 25be 0c08 a93d
00000060: f655 a9bd e2f7 30bc dca9 4c3d 5566 9f3c
00000070: c604 6b3e aafe 08be e401 a93b 2b63 62bd
00000080: 25ef 8ebd cea8 723d 078c 1bbd 5948 aabc
00000090: bcf6 9a3e f28b 5abe 5a34 2b3e 6d23 bd3c
000000a0: fe5f 963d 1cc2 b73e 7633 033e 93d6 3e3e
000000b0: ee56 393e d84e 0a3e 0dc1 8b3e d03b 5dbd
000000c0: a854 013d d682 4fbe 9355 653c 902a 45be
000000d0: bf43 553e 0864 d4bc acac ffbc 3611 953d
000000e0: 4e20 f6bc 841e 883d bb7c 913d d2d4 1b3d
000000f0: 0e55 87be 6254 57bb 1e81 453e 4056 8c3e
00000100: 349d 8bbc 6279 c03d 8745 783d 3f0f 513d
00000110: e90c 8e3d d589 f4bc 9dba ce3d 8043 cdbd
00000120: 469b 893e 836a 17bb 399b 10bd f0b5 ac3d
00000130: 3db7 5a3d fc2c d7bb fd5d bf3c 2ea3 32bd
00000140: c5e8 d33e f780 adbd 38e4 0bbe f9f8 ab3d
00000150: 2915 ca3e 7e96 0ebc 1058 6bbd b299 1abd
00000160: 854c 89bd 0414 73bd f445 07bd ac24 693e
00000170: 6b67 d33d 4ddc af3e 117e abbd c76c 443e
00000180: 6867 da3d cc73 53be 2d21 0cbf b6c4 2ebd
00000190: 0bc7 2ebe cef5 85bd 1aa1 a73e d74e 9dbe
000001a0: fa8c 153e eed4 7f3e c546 b93d 73e2 f6bd
000001b0: 088b f6bd 91dd 583e ce53 533d 7d91 e43e
000001c0: 15f6 3d3e 416b 0abe 37f6 833e 46d8 293e
000001d0: dac8 dbbd eea4 89be d162 a63e dac9 983d

fc2.weight f4 [84, 120]
-0.11735308 0.042785216 -0.10594348 -0.15158506 -0.15084548 -0.007081209 -0.14093381 0.1654611
0.020295586 -0.117442526 0.0043910844 -0.040644642 -0.03139494 0.024715785 -0.047894966 0.0684516
-0.0024720994 -0.016748527 -0.089497395 0.004875607 0.018332617 -0.13671453 0.026588215 -0.18397297
-0.109124 -0.03023852 -0.011216898 -0.051570103 -0.005319354 -0.100570634 -0.08372408 -0.0053498894
-0.015557873 -0.04851006 0.0051931175 -0.039416254 0.28737587 -0.122129805 -0.019468833 -0.032788906
-0.08979019 0.012321787 0.080164984 -0.035801347 -0.15468799 0.052361622 -0.014849134 -0.07070829
-0.07059855 -0.020794684 -0.0030768304 -0.12789227 0.04255955 0.042399306 -0.016180128 -0.029686764
-0.08942969 0.19818063 -0.01718678 -0.07236883 -0.062488504 0.019979509 -0.17347875 -0.084996045
-0.076453224 -0.05204028 0.023048194 -0.054406352 -0.072989024 -0.07199176 0.03764694 -0.04142071
-0.019336015 -0.024858098 -0.051660474 -0.022635141 -0.09038799 0.06536946 -0.045757953 -0.001039668
0.09419733 0.1562396 -0.21202265 -0.21498871 0.18157262 0.03975198 -0.011345816 -0.09151951
-0.03509304 0.19034807 0.016183952 -0.03432225 -0.036642767 -0.09630285 -0.094589286 -0.0052779587
-0.13685721 -0.015254339 -0.026113596 -0.08757926 -0.20871623 0.15287036 -0.15447007 -0.052614745
-0.13745192 0.05341564 -0.08906198 0.021947844 0.0148698045 0.00094656734 0.03841572 -0.15137078
-0.03495151 -0.15254253 -0.064988516 -0.071104266 -0.01953556 -0.08723667 -0.0037032529 0.015216332
-0.07117652 0.0712344 -0.041872665 -0.049000915 0.02010157 -0.07848847 -0.114102796 0.007818123
0.09325323 -0.12280682 -0.014102604 -0.0047226343 0.0006989607 0.031852845 -0.027613731 -0.05113693
-0.007847851 -0.14279386 -0.10794559 -0.09160493 -0.10053587 0.008618429 -0.040295728 -0.011701621
-0.003688299 -0.00493807 0.08485761 0.097163215 -0.06897028 0.010553871 -0.04551667 0.007299077
-0.021121556 -0.11780888 0.027886884 -0.049936127 0.014033838 0.12433377 -0.14470176 0.010614133
-0.0150075955 -0.028900666 -0.05218768 -0.04999751 0.06693861 -0.07749156 0.06624218 0.0510331
-0.04804776 -0.043937296 -0.096543685 -0.05842932 -0.016879886 -0.12957409 -0.053187314 -0.067630164
0.08160934 -0.12263572 -0.011602387 0.04456071 0.06319645 0.054494135 -0.114486836 -0.09277819
0.043589614 -0.06582809 0.01757191 0.15029573 -0.033328284 0.039255887 0.0893702 0.047972508
-0.08738968 0.050981916 -0.0412248 0.10219597 -0.059997566 -0.025244946 -0.037644994 -0.18796085
-0.04248711 -0.12067263 0.07910686 0.020833384 0.077176094 -0.07323642 -0.026169542 0.007958875
-0.014438083 0.02903109 -0.020615317 -0.09824425 0.049558386 -0.03449928 -0.007888548 -0.05763312
-0.13890299 -0.09599732 -0.03995046 -0.015600444 0.0010131033 -0.10033069 0.010334862 -0.15717293
0.12936686 -0.11799664 -0.10413411 0.062028497 -0.04111968 -0.11223875 -0.0038306343 0.00081940484
0.04351637 -0.019355595 0.017474817 -0.014795844 0.018895794 0.05416561 -0.031579785 0.053569514
-0.075885974 -0.01943986 -0.094544515 -0.0960294 0.043807533 -0.11164949 -0.26765993 -0.23755637
0.03896365 -0.20868017 -0.32279047 -0.013588341 0.040594503 -0.11229259 -0.033322886 -0.22478814
00000000: d056 f0bd 8d3f 2f3d e5f8 d8bd 1d39 1bbe
00000010: 3d77 1abe 7d09 e8bb f450 10be a26e 293e
00000020: ee42 a63c b585 f0bd 16e3 8f3b ff7a 26bd
00000030: fb97 00bd c278 ca3c 832d 44bd 5a30 8c3d
00000040: f202 22bb 3534 89bc 694a b7bd 8ec3 9f3b
00000050: 492e 963c e5fe 0bbe 87cf d93c 6963 3cbe
00000060: 677c dfbd c6b6 f7bc 15c7 37bc 2c3b 53bd
00000070: fa4d aebb faf7 cdbd 8877 abbd 204e afbb
00000080: 73e6 7ebc 7cb2 46bd 072b aa3b f072 21bd
00000090: ee22 933e 311f fabd 1a7d 9fbc a94d 06bd
000000a0: ebe3 b7bd 52e1 493c 8a2d a43d 6fa4 12bd
000000b0: 8766 1ebe 2479 563d c849 73bc 82cf 90bd
000000c0: f995 90bd 9d59 aabc a6a4 49bb 31f6 02be
000000d0: ec52 2e3d e5aa 2d3d 308c 84bc a831 f3bc
000000e0: ea26 b7bd ddef 4a3e 4acb 8cbc 1c36 94bd
000000f0: f2f3 7fbd 11ac a33c 6aa4 31be 6812 aebd
00000100: 8293 9cbd 3028 55bd 91cf bc3c 32d9 5ebd
00000110: 457b 95bd 6a70 93bd ae33 1a3d c3a8 29bd
00000120: 9066 9ebc 36a3 cbbc ef99 53bd 556d b9bc
00000130: 571d b9bd 6ce0 853d b16c 3bbd 7845 88ba
00000140: 88ea c03d 46fd 1f3e 771c 59be 0026 5cbe
00000150: 2cee 393e f9d2 223d cde3 39bc 956e bbbd
00000160: b8bd 0fbd 9bea 423e 3594 843c 7d95 0cbd
00000170: ba16 16bd 6e3a c5bd 07b8 c1bd baf2 acbb
00000180: 4c24 0cbe 56ed 79bc 2eec d5bc c15c b3bd
00000190: b5b9 55be 0c8a 1c3e 672d 1ebe 8f82 57bd
000001a0: 32c0 0cbe 5cca 5a3d 2166 b6bd f7cb b33c
000001b0: 7ba0 733c 0f23 783a cd59 1d3d f100 1bbe
000001c0: 5129 0fbd 1c34 1cbe b318 85bd 1d9f 91bd
000001d0: 0a09 a0bc 24a9 b2bd 46b2 72bb ec4d 793c
000001e0: ffc4 91bd 57e3 913d ac82 2bbd 2fb5 48bd
000001f0: 0cac a43c 90be a0bd baae e9bd 9617 003c
00000200: 8dfb be3d 2482 fbbd 9c0e 67bc 54c0 9abb
00000210: 753a 373a 2178 023d 3136 e2bc f574 51bd
00000220: 4694 00bc 8e38 12be 9412 ddbd 5e9b bbbd
00000230: c0e5 cdbd 5034 0d3c 220d 25bd 28b8 3fbc
00000240: 64b7 71bb 89cf a1bb d4c9 ad3d 82fd c63d
00000250: 4a40 8dbd 25ea 2c3c b06f 3abd 192d ef3b
00000260: 1d07 adbc c845 f1bd 0973 e43c d389 4cbd
00000270: 2fee 653c b4a2 fe3d b32c 14be e7e6 2d3c
00000280: 6be2 75bc 17c1 ecbc c0c2 55bd 30ca 4cbd
00000290: 1c17 893d e5b3 9ebd fba9 873d 1508 513d
000002a0: bacd 44bd 98f7 33bd b2b8 c5bd 9553 6fbd
000002b0: b047 8abc 12af 04be f1da 59bd af81 8abd
000002c0: cc22 a73d 7028 fbbd f017 3ebc 4b85 363d
000002d0: 246d 813d 3e35 5f3d 1378 eabd 7e02 bebd
000002e0: 068b 323d e1d0 86bd f7f2 8f3c 20e7 193e
000002f0: 3d83 08bd c8ca 203d b907 b73d d27e 443d
00000300: 5cf9 b2bd 6ad2 503d 56db 28bd 1f4c d13d
00000310: 02c0 75bd 7dce cebc a331 1abd cf78 40be
00000320: f706 2ebd 3623 f7bd c702 a23d c6aa aa3c
00000330: 800e 9e3d fafc 95bd 8261 d6bc f165 023c
00000340: b68d 6cbc 9cd2 ed3c 74e1 a8bc 4834 c9bd
00000350: bcfd 4a3d 1e4f 0dbd f83e 01bc b510 6cbd
00000360: 963c 0ebe 3e9a c4bd 18a3 23bd 0199 7fbc
00000370: 1bca 843a 2d7a cdbd 8e53 293c f1f1 20be
00000380: bf78 043e 39a8 f1bd 4444 d5bd 9811 7e3d
00000390: 1c6d 28bd 6edd e5bd 610b 7bbb 54cd 563a
000003a0: 393e 323d a08f 9ebc 5927 8f3c 456a 72bc
000003b0: 5acb 9a3c c2dc 5d3d ce59 01bd b56b 5b3d
000003c0: 1b6a 9bbd 5740 9fbc 8ea0 c1bd 10ab c4bd
000003d0: 876f 333d 7da8 e4bd b90a 89be fa41 73be
000003e0: 5998 1f3d 41b0 55be cb44 a5be a2a1 5ebc
000003f0: 6c46 263d a8f9 e5bd 947d 08bd dd2e 66be

fc2.bias f4 [84]
-0.09566261 -0.11694509 0.1788437 0.109553255 0.11733787 0.059257183 0.9604182 -0.10171509
0.42898744 0.07483467 -0.13265449 0.1777971 0.035441224 0.04800672 0.20128217 0.38011134
0.33452553 0.022331372 -0.019605093 -0.097791046 0.05497251 0.49796066 0.23178084 0.06130498
-0.044210773 0.27592555 0.27873087 0.39872813 0.35342982 -0.056629628 0.2831379 -0.007602001
-0.0062703793 0.31204382 0.5233598 0.8501506 0.4801818 -0.066695265 -5.984617e-05 0.18241592
-0.09112766 0.16479383 0.17872512 0.5383008 0.12949882 0.27595192 -0.004703969 0.05362019
0.2648617 0.27278975 -0.09332152 -0.02682386 0.38311207 0.7973746 0.034539547 0.1374424
0.15118623 0.19051495 0.23815727 0.10295786 -0.028943134 0.6136131 0.65134144 -0.057467453
0.56153744 -0.12525608 0.21367446 0.29460475 0.6252357 0.3089179 -0.044408206 0.009993565
0.0648429 0.60044414 0.060698967 0.38789147 0.03206567 -0.011421019 0.4084968 0.24062443
0.7823821 0.6368451 0.059625126 0.6622858
00000000: c2ea c3bd e880 efbd ce22 373e 755d e03d
00000010: d64e f03d a9b7 723d f8dd 753f 0050 d0bd
00000020: 3ea4 db3e eb42 993d 94d6 07be 7110 363e
00000030: d12a 113d b2a2 443d ea1c 4e3e f49d c23e
00000040: ee46 ab3e 48f0 b63c dc9a a0bc ac46 c8bd
00000050: db2a 613d b3f4 fe3e f557 6d3e ee1a 7b3d
00000060: 5b16 35bd 1d46 8d3e d0b5 8e3e 1826 cc3e
00000070: c1f4 b43e 78f4 67bd 73f7 903e 351a f9bb
00000080: c177 cdbb 35c4 9f3e e8fa 053f 78a3 593f
00000090: 64da f53e 8797 88bd 5603 7bb8 3dcb 3a3e
000000a0: 23a1 babd b7bf 283e b803 373e 15ce 093f
000000b0: 579b 043e 9249 8d3e c123 9abb d8a0 5b3d
000000c0: f49b 873e 19ab 8b3e 5a1f bfbd b6bd dbbc
000000d0: 4427 c43e be20 4c3f 5779 0d3d b3bd 0c3e
000000e0: 90d0 1a3e 5a16 433e 80df 733e 92db d23d
000000f0: 271a edbc c015 1d3f 50be 263f fe62 6bbd
00000100: ebc0 0f3f 2143 00be 7acd 5a3e 6fd6 963e
00000110: 720f 203f 7d2a 9e3e 61e5 35bd 0dbc 233c
00000120: 5bcc 843d b5b6 193f 7b9f 783d b699 c63e
00000130: 4b57 033d 3a1f 3bbc 7e26 d13e 4066 763e
00000140: 314a 483f 4808 233f 7a39 743d 908b 293f

fc3.weight f4 [10, 84]
0.032397747 0.14154135 -0.17342097 0.27323171 -0.089011945 0.027517948 -0.12555265 -0.0023398092
0.006374954 0.10181034 0.160228 0.16058269 0.00086858857 0.16023023 0.1018871 -0.07046983
-0.16836074 -0.15382853 -0.028490447 -0.108769335 0.22326194 -0.113872826 0.14236234 0.036664728
-0.24663506 0.018832482 -0.16409847 -0.012996614 0.050344978 0.017959839 -0.056988887 0.098847486
1.1829237e-05 0.13327737 -0.056738336 -0.29412264 0.11661575 0.06280914 0.33493575 0.14801136
-0.08593611 0.21656406 0.11295693 0.25296944 -0.011263436 -0.063810416 0.23547171 -0.19827023
0.2755288 0.3049218 0.13224526 0.26672056 0.033910826 -0.03786061 0.03715917 0.2313764
0.0882459 -0.25527003 0.022037081 -0.033546157 0.17962481 0.01923634 -0.5131828 -0.10394761
-0.27637407 0.11127709 0.093365856 0.022435797 -0.23489034 0.29691467 0.053679854 -0.10527353
0.09891914 0.052750424 0.20861281 -0.12853198 -0.16319463 0.029576892 0.22232327 0.13889454
-0.09470031 -0.1551412 -0.06348052 -0.1788393 -0.028037658 -0.068935275 0.17034304 0.32088786
0.044354286 -0.112371534 -0.09140952 0.04366963 0.31119406 0.13335417 0.115272485 -0.14080721
-0.104962334 -0.087317176 -0.31900573 0.22843543 0.05045669 0.15606725 0.08269282 -0.12761916
0.14923151 0.07464033 0.18844064 0.33645704 -0.05107131 -0.23422116 -0.24562685 0.011517325
-0.13980833 -0.025932314 -0.05682803 0.149886 -0.15578286 0.058832824 -0.2179436 -0.10309997
-0.0049211294 0.05143646 -0.3156086 0.011008689 0.086430945 -0.31452307 0.09024499 -0.056647323
0.11473345 0.10775113 -0.22182694 0.23490235 0.19895239 0.12068987 -0.06929693 -0.13659361
-0.15460004 -0.38966787 -0.06505226 -0.040554117 -0.20009549 0.11456778 0.2940472 0.13783756
-0.18048124 -0.19288558 -0.2068125 -0.025909802 -0.18125208 0.23589411 -0.03708612 -0.04088246
-0.30041298 -0.1508576 -0.024511686 -0.09617124 0.16182876 -0.04353896 0.056311283 -0.16886374
0.26739687 -0.07110159 0.2157877 0.12829101 -0.32021987 -0.06687031 0.12662548 -0.098770134
-0.03495308 -0.058487665 -0.156032 0.08564681 -0.02566302 0.13555671 0.090900905 -0.22660178
-0.20111227 -0.120000124 -0.043974873 0.11308286 -0.011513347 -0.06947835 0.25599423 -0.10715759
-0.10851389 0.041563913 0.08491961 -0.06752825 -0.025526162 -0.15026248 0.13845515 -0.0807271
-0.031565126 0.23942873 -0.030119302 -0.022390775 0.11720417 -0.12709655 0.17099245 0.15902768
-0.07934235 0.007089448 0.25398773 0.23458795 -0.12129165 -0.049248327 0.27595255 0.045453254
-0.01439091 0.11256484 -0.05018173 -0.033421166 0.013157889 0.1378455 0.22847103 0.015771147
0.14695418 -0.24673694 0.06834084 0.07293586 0.031496204 0.084743105 0.057826646 0.18782972
-0.033147108 -0.010300739 -0.04669938 0.07820474 0.15613347 0.1496854 0.21835253 0.18887302
0.15726934 0.0073188734 -0.011324754 -0.011123859 0.12866582 0.22638232 -0.13889448 0.17170016
-0.0789191 0.017963845 -0.0060106446 0.28815013 0.028777875 -0.006208813 -0.15018834 -0.09398501
0.034127366 -0.061764784 0.10346969 0.18121892 -0.020924676 0.12647045 0.025552938 -0.18329427
00000000: 80b3 043d 37f0 103e 4495 31be 07e5 8b3e
00000010: e54b b6bd 526d e13c e090 00be 7c57 19bb
00000020: fde4 d03b f181 d03d cf12 243e ca6f 243e
00000030: feb1 633a 6513 243e 2faa d03d 7c52 90bd
00000040: c266 2cbe 3a85 1dbe cc64 e9bc 75c2 debd
00000050: c79e 643e 2836 e9bd 6fc7 113e c12d 163d
00000060: e78d 7cbe 9446 9a3c 6e09 28be c0ef 54bc
00000070: 8936 4e3d 8320 933c 2e6d 69bd 8d70 ca3d
00000080: 3076 4637 dd79 083e 7566 68bd 3e97 96be
00000090: 3dd4 ee3d 14a2 803d b37c ab3e 4a90 173e
000000a0: 45ff afbd f8c2 5d3e f755 e73d 3685 813e
000000b0: 468a 38bc 09af 82bd 7f1f 713e 5a07 4bbe
000000c0: 1c12 8d3e b61e 9c3e 4d6b 073e 998f 883e
000000d0: 14e6 0a3d ba13 1bbd 3734 183d efed 6c3e
000000e0: 44ba b43d c1b2 82be 1c87 b43c b267 09bd
000000f0: 91ef 373e 8795 9d3c f35f 03bf 7ce2 d4bd
00000100: e780 8dbe 3ee5 e33d 9936 bf3d 47cb b73c
00000110: 1887 70be 3305 983e 68df 5b3d a699 d7bd
00000120: 1e96 ca3d d410 583d 999e 553e e39d 03be
00000130: 7e1c 27be 3d4b f23c b6a8 633e 5f3a 0e3e
00000140: 3cf2 c1bd 56dd 1ebe 1302 82bd a621 37be
00000150: 3baf e5bc f02d 8dbd 686e 2e3e 6a4b a43e
00000160: d7ac 353d 0c23 e6bd ea34 bbbd edde 323d
00000170: d454 9f3e ff8d 083e fb13 ec3d c42f 10be
00000180: 7ef6 d6bd 59d3 b2bd b854 a3be faea 693e
00000190: adab 4e3d 18d0 1f3e da5a a93d 99ae 02be
000001a0: 25d0 183e 08dd 983d 95f6 403e 1944 ac3e
000001b0: 2630 51bd acd7 6fbe 9b85 7bbe 2ab3 3c3c
000001c0: ea29 0fbe 0170 d4bc 82c4 68bd b77b 193e
000001d0: 8b85 1fbe b0fa 703d 9b2c 5fbe 1426 d3bd
000001e0: 6d41 a1bb 0aaf 523d 7397 a1be ca5d 343c
000001f0: b502 b13d 2b09 a1be 5ed2 b83d 0607 68bd
00000200: 5ff9 ea3d a0ac dc3d 9a26 63be 3e8a 703e
00000210: 2dba 4b3e 402c f73d 8deb 8dbd 32df 0bbe
00000220: 794f 1ebe 8c82 c7be 1f3a 85bd 131c 26bd
00000230: d5e5 4cbe 83a2 ea3d 5b8d 963e 4a25 0d3e
00000240: 13d0 38be cc83 45be a8c6 53be cb40 d4bc
00000250: 259a 39be 3a8e 713e 9ee7 17bd 5e74 27bd
00000260: bbcf 99be 6a7a 1abe bbcc c8bc 6df5 c4bd
00000270: 70b6 253e e955 32bd a9a6 663d 9eea 2cbe
00000280: 3ee8 883e b69d 91bd 73f7 5c3e b85e 033e
00000290: dcf3 a3be 4df3 88bd 1caa 013e ff47 cabd
000002a0: f62a 0fbd c390 6fbd dac6 1fbe 9867 af3d
000002b0: 413b d2bc 61cf 0a3e 412a ba3d 4c0a 68be
000002c0: 60f0 4dbe a0c2 f5bd ff1e 34bd fd97 e73d
000002d0: 7aa2 3cbc aa4a 8ebd ad11 833e 7075 dbbd
000002e0: 883c debd ec3e 2a3d 55ea ad3d 404c 8abd
000002f0: 3e1c d1bc 68de 19be 30c7 0d3e 4054 a5bd
00000300: 6f4a 01bd ce2c 753e c1bc f6bc dc6c b7bc
00000310: bd08 f03d 9925 02be a518 2f3e 27d8 223e
00000320: 3e7e a2bd 9a4e e83b ae0a 823e d337 703e
00000330: c267 f8bd 9db8 49bd a749 8d3e 312d 3a3d
00000340: dac7 6bbc 6588 e63d 5c8b 4dbd a2e4 08bd
00000350: 3094 573c 5f27 0d3e 4ff4 693e 7e32 813c
00000360: 287b 163e 9ca8 7cbe 48f6 8b3d 655f 953d
00000370: 2a02 013d cb8d ad3d a2db 6c3d 6f56 403e
00000380: 43c5 07bd 6ec4 28bc d947 3fbd cf29 a03d
00000390: 74e1 1f3e 2147 193e ce97 5f3e ee67 413e
000003a0: 370b 213e 29d3 ef3b 768b 39bc d940 36bc
000003b0: f9c0 033e c4d0 673e 5b3a 0ebe 2bd2 2f3e
000003c0: 56a0 a1bd ea28 933c f1f4 c4bb 6a88 933e
000003d0: 94bf eb3c 4c73 cbbb f9ca 19be 377b c0bd
000003e0: 23c9 0b3d 12fd 7cbd ebe7 d33d 7491 393e
000003f0: 3a6a abbc 7881 013e 6554 d13c 7eb1 3bbe

fc3.bias f4 [10]
-0.3621454 -0.8462677 -0.38749844 0.5550027 0.7858225 0.056675468 0.11683781 -0.21362522
0.5199168 -0.39815798
00000000: 1f6b b9be 00a5 58bf 3266 c6be a814 0e3f
00000010: aa2b 493f 8924 683d a948 ef3d 92c0 5abe
00000020: 4419 053f 5ddb cbbe
